…
er_tz":-330,"elapsed":867,"user":{"displayName":"Ayush Tewari","photoUrl":"","userId":"12779105840948120277"}},"outputId":"8dea9671-83af-4a1c-cd3f-d131454ee668"},"source":["# Output layers\n","model.add(layers.Dense(1, activation='relu'))\n","print(model.summary())"],"execution_count":null,"outputs":[{"output_type":"stream","text":["Model: \"sequential\"\n","_________________________________________________________________\n","Layer (type)                 Output Shape              Param #   \n","=================================================================\n","dropout (Dropout)            (None, 48)                0         \n","_________________________________________________________________\n","dense (Dense)                (None, 1024)              50176     \n","_________________________________________________________________\n","dense_1 (Dense)              (None, 64)                65600     \n","_________________________________________________________________\n","dropout_1 (Dropout)          (None, 64)                0         \n","_________________________________________________________________\n","dense_2 (Dense)              (None, 64)                4160      \n","_________________________________________________________________\n","dropout_2 (Dropout)          (None, 64)                0         \n","_________________________________________________________________\n","dense_3 (Dense)              (None, 64)                4160      \n","_________________________________________________________________\n","dropout_3 (Dropout)          (None, 64)                0         \n","_________________________________________________________________\n","dense_4 (Dense)              (None, 1)                 65        \n","=================================================================\n","Total params: 124,161\n","Trainable params: 124,161\n","Non-trainable params: 0\n","_________________________________________________________________\n","None\n"],"name":"stdout"}]},{"cell_type":"code","metadata":{"id":"K7p80moOvhO1","colab_type":"code","colab":{}},"source":["# compiling model\n","model.compile(opti
…
zers.l2(0.001)))\n","model1.add(layers.Dropout(0.2))\n","model1.add(layers.Dense(124, activation='relu', kernel_regularizer=regularizers.l2(0.001)))\n","model1.add(layers.Dropout(0.2))\n","model1.add(layers.Dense(1, activation='relu'))\n","print(model1.summary())"],"execution_count":null,"outputs":[{"output_type":"stream","text":["Model: \"sequential_1\"\n","_________________________________________________________________\n","Layer (type)                 Output Shape              Param #   \n","=================================================================\n","dropout_4 (Dropout)          (None, 48)                0         \n","_________________________________________________________________\n","dense_5 (Dense)              (None, 1024)              50176     \n","_________________________________________________________________\n","dense_6 (Dense)              (None, 124)               127100    \n","_________________________________________________________________\n","dropout_5 (Dropout)          (None, 124)               0         \n","_________________________________________________________________\n","dense_7 (Dense)              (None, 124)               15500     \n","_________________________________________________________________\n","dropout_6 (Dropout)          (None, 124)               0         \n","_________________________________________________________________\n","dense_8 (Dense)              (None, 1)                 125       \n","=================================================================\n","Total params: 192,901\n","Trainable params: 192,901\n","Non-trainable params: 0\n","_________________________________________________________________\n","None\n"],"name":"stdout"}]},{"cell_type":"code","metadata":{"id":"T7_XqziS73Dr","colab_type":"code","colab":{}},"source":["model1.compile(optimizer='adam', loss='me
…
ers.l2(0.001)))\n","model2.add(layers.Dropout(0.2))\n","model2.add(layers.Dense(1024, activation='relu', kernel_regularizer=regularizers.l2(0.001)))\n","model2.add(layers.Dropout(0.2))\n","model2.add(layers.Dense(1, activation='relu'))\n","print(model2.summary())"],"execution_count":null,"outputs":[{"output_type":"stream","text":["Model: \"sequential_2\"\n","_________________________________________________________________\n","Layer (type)                 Output Shape              Param #   \n","=================================================================\n","dense_9 (Dense)              (None, 1024)              50176     \n","_________________________________________________________________\n","dense_10 (Dense)             (None, 1024)              1049600   \n","_________________________________________________________________\n","dropout_7 (Dropout)          (None, 1024)              0         \n","_________________________________________________________________\n","dense_11 (Dense)             (None, 1024)              1049600   \n","_________________________________________________________________\n","dropout_8 (Dropout)          (None, 1024)              0         \n","_________________________________________________________________\n","dense_12 (Dense)             (None, 1024)              1049600   \n","_________________________________________________________________\n","dropout_9 (Dropout)          (None, 1024)              0         \n","_________________________________________________________________\n","dense_13 (Dense)             (None, 1)                 1025      \n","=================================================================\n","Total params: 3,200,001\n","Trainable params: 3,200,001\n","Non-trainable params: 0\n","_________________________________________________________________\n","None\n"],"name":"stdout"}]},{"cell_type":"code","metadata":{"id":"qHc2gmtV9t1U","colab_type":"code","colab":{}},"source":["model2.compile(optimizer='adam', loss=
…
